examples/xd_1d_models/input/1d_matrices_2d/b0.npy (npy, 8840 bytes, 1 tensors)

array f8 [1089]
1.0 1.0386769871436583 0.057337224345835144 0.07540458262967983 0.09274575356246287 0.10919373218845324 0.12459011548210297 0.13878662785577495
0.15164654913470754 0.16304603124703676 0.1728752909484299 0.18103966709474267 0.18746053228058412 0.19207605006421266 0.1948417704862732 0.19573105814720482
0.1947353487206986 0.19186423143284187 0.18714535671262916 0.1806241699032154 0.1723634735984186 0.16244282281940992 0.15095775885637047 0.138018889153639
0.12375082209955847 0.10829096697957852 0.09178821064972102 0.0744014836747668 0.056298229740036385 0.0376527930771665 0.018644739433853103 -1.0004132181426058
-1.0 0.9951847266721969 2.0288759311846163 0.03764086545056892 0.03624240574601592 0.03449491186201451 0.03241521311994495 0.030023338155572322
0.027342322032335425 0.02439798440109351 0.02121868084277411 0.01783502978862796 0.014279617647998299 0.010586684983385369 0.006791796755111744 0.0029314998113126214
-0.0009570290781902496 -0.004836341254504838 -0.008669076820725485 -0.012418324438163101 -0.01604797680271453 -0.019523078377939335 -0.022810162035984332 -0.025877571364319847
-0.0286957655342975 -0.031237603795478762 -0.03347860685589833 -0.03539719263102747 -0.03697488409104601 -0.0381964872047401 -0.039050237266328676 -0.039527912196011386
-2.0298097070702994 -0.9951847266721969 0.9807852804032304 1.999218054273879 0.03643277066560991 0.034682522368927396 0.03259826242243682 0.03020006338879526
0.027511021235685655 0.02455703290902239 0.02136654693120554 0.017970289426298507 0.014400968210656763 0.01069295779877639 0.006881968357928468 0.00300470179972711
-0.0009015016793427024 -0.004799023204429497 -0.008650327512644699 -0.012418324438163098 -0.01606672611079532 -0.019560396428014673 -0.02286568943483188 -0.025950773352734338
-0.028785937137114217 -0.03134387661086978 -0.03359995741855679 -0.035532452268698014 -0.03712275017947743 -0.03835553571266899 -0.0392189364696789 -0.03970463742923432
-0.039807961025583566 -2.0009012805695776 -0.9807852804032304 0.9569403357322088 1.9503066146167272 0.03487380838296275 0.03278862734203081 0.030387673895708147
0.027694070538177525 0.024733758142245328 0.02153524613455576 0.01812933793422739 0.014548834299088188 0.010828217436446937 0.007003318920586934 0.0031109746151181273
-0.0008113300765259815 -0.0047258212160150095 -0.008594800113797148 -0.012381006388087758 -0.01604797680271453 -0.019560396428014673 -0.022884438742912662 -0.025988091402809672
-0.02884146453596177 -0.03141707859928427 -0.03369012902137351 -0.035638725084089024 -0.0372441007421359 -0.03849079535033953 -0.03936680255811032 -0.0398636859371632
-0.0399766602289338 -0.03970463742923432 -1.9527230809330687 -0.9569403357322089 0.9238795325112867 1.8826126561147716 0.032978992261624804 0.03057895990974351
0.027884435457771514 0.024921368649158216 0.021718295437047633 0.01830606316745033 0.014717533502438412 0.010987265944375817 0.007151185009018358 0.0032462342527886756
-0.0006899795138675154 -0.004619548400623993 -0.008504628510980428 -0.01230780439967327 -0.015992449403866984 -0.019523078377939332 -0.022865689434831877 -0.025988091402809672
-0.02886021384404255 -0.03145439664935961 -0.033745656420221065 -0.035711927072503515 -0.037334272344952624 -0.038597068165730546 -0.039488153120768796 -0.03999894557483375
-0.040124526317365225 -0.0398636859371632 -0.039218936469678896 -1.8857390905601545 -0.9238795325112868 0.881921264348355 1.7967881085936679 0.030766570416656397
0.02807480037736551 0.025112654663193575 0.021908660356641633 0.018493673674363213 0.014900582804930288 0.011163991177598755 0.007319884212368581 0.003405282760717559
-0.0005421134254360891 -0.004484288762953444 -0.008383277948321964 -0.012201531584282254 -0.01590227780105026 -0.019449876389524844 -0.02281016203598433 -0.025950773352734338
-0.02884146453596177 -0.0314543966493596 -0.03376440572830185 -0.035749245122578856 -0.03738979974380016 -0.03867027015414504 -0.039578324723585516 -0.04010521839022477
-0.04024587688002368 -0.03999894557483375 -0.03936680255811033 -0.03835553571266899 -1.8005944018953002 -0.881921264348355 0.8314696123025452 1.6936595093625142
0.028257849679857384 0.025300265170106463 0.022099025276235622 0.018684959688398575 0.015090947724524281 0.011351601684511643 0.007502933514860455 0.0035820079939404927
-0.00037341422208586616 -0.004325240255024562 -0.008235411859890539 -0.012066271946611706 -0.015780927238391793 -0.019343603574133825 -0.022719990433167612 -0.02587757136431985
-0.02878593713711422 -0.03141707859928426 -0.03374565642022106 -0.035749245122578856 -0.03740854905188095 -0.03870758820422038 -0.03963385212243306 -0.04017842037863926
-0.040336048482840406 -0.04010521839022477 -0.039488153120768796 -0.03849079535033953 -0.03712275017947743 -1.6981090048351701 -0.8314696123025455 0.773010453362737
1.5742200432077336 0.025476990403329403 0.022282074578727502 0.01887257019531146 0.015281312644118276 0.011542887698547005 0.00769329843445445 0.0037696185008533807
-0.00019036491959399258 -0.004148515021801625 -0.008066712656540315 -0.011907223438682824 -0.015633061149960374 -0.019208343936463278 -0.022598639870509144 -0.025771298548928834
-0.028695765534297497 -0.031343876610869785 -0.03369012902137351 -0.035711927072503515 -0.03738979974380017 -0.03870758820422038 -0.03965260143051385 -0.0402157384287146
00000000: 0000 0000 0000 f03f b93c aec2 6b9e f03f
00000010: 364b d1fe 4d5b ad3f deed 5cf8 b64d b33f
00000020: 7ac6 648a 2fbe b73f 7c76 add4 1ef4 bb3f
00000030: e086 6647 23e5 bf3f 5e9f e19d c2c3 c13f
00000040: 94db 8a74 2769 c33f 486c f93d b1de c43f
00000050: 987a 740c c720 c63f ceae b9cc 4e2c c73f
00000060: 4cca b7eb b4fe c73f 8771 afb0 f295 c83f
00000070: 5e0f 113c 93f0 c83f 44e0 c61e b70d c93f
00000080: 0eb6 1081 16ed c83f 8a5b a3d3 018f c83f
00000090: 5ae9 5609 61f4 c73f 90fc 4c5b b11e c73f
000000a0: 53a9 109d 0110 c63f 5059 bd29 edca c43f
000000b0: daca ae76 9552 c33f 9393 925b 9aaa c13f
000000c0: c14d c545 22ae bf3f 4827 a1f1 f4b8 bb3f
000000d0: 031f e6a2 6e7f b73f 3d31 28c3 f90b b33f
000000e0: cebf 1c1f 1fd3 ac3f 2e2d bd15 3a47 a33f
000000f0: 3580 7148 9b17 933f a689 664a b101 f0bf
00000100: 0000 0000 0000 f0bf 2625 d1a3 8dd8 ef3f
00000110: c3a2 e04d 233b 0040 a5e7 34dc a945 a33f
00000120: f4a3 d056 5d8e a23f 55c9 a62c 51a9 a13f
00000130: e96e 7c10 ba98 a03f 7acf fa1d 70be 9e3f
00000140: 7bcb b32b a0ff 9b3f fa32 5d04 c9fb 983f
00000150: beca 2291 59ba 953f a54f a996 5843 923f
00000160: 265b 61d6 a13e 8d3f 96ab 36ce 78ae 853f
00000170: 65c9 1b0f b7d1 7b3f 6790 2bfa cc03 683f
00000180: b382 cb4b 245c 4fbf 8c88 5378 45cf 73bf
00000190: c0c4 73cb 17c1 81bf a20a aa4a c76e 89bf
000001a0: e174 237e e16e 90bf 251b 9a9c dbfd 93bf
000001b0: eb13 d80f 8c5b 97bf 12b1 d66a a67f 9abf
000001c0: 5693 033a 6c62 9dbf 56f4 d31a c0fc 9fbf
000001d0: 629a 1fa3 1b24 a1bf 1fe2 70b1 941f a2bf
000001e0: c38c e33b 5fee a2bf 2e9e bb6e 7d8e a3bf
000001f0: e97a eb87 64fe a3bf 5272 52a4 003d a4bf
00000200: 20c3 27df 0c3d 00c0 2625 d1a3 8dd8 efbf
00000210: b05c f7cf 9762 ef3f 72dd 0a12 ccfc ff3f
00000220: 71de 05ed 50a7 a23f 4a79 a256 e8c1 a13f
00000230: 8386 052e b8b0 a03f ec35 5ef2 c3ec 9e3f
00000240: ee83 f261 d92b 9c3f 9097 ec94 7a25 993f
00000250: df20 31b1 1ce1 953f 7bdc 8ab5 cd66 923f
00000260: 14cc f63b 417e 8d3f e594 5880 30e6 853f
00000270: 3176 7850 4430 7c3f f194 d9fe 509d 683f
00000280: 5ecd 721d 588a 4dbf 0ccb 73fb 23a8 73bf
00000290: b5c9 214e 43b7 81bf a00a aa4a c76e 89bf
000002a0: 6872 ccbc cb73 90bf 840a d2fb a307 94bf
000002b0: 96d9 4a71 1a6a 97bf a471 6ceb d692 9abf
000002c0: 87be 5a8a 0f7a 9dbf 7e74 f2f9 4d0c a0bf
000002d0: 9df6 847c 0334 a1bf 8aa8 e140 4f31 a2bf
000002e0: d2b7 eacb c001 a3bf 7a50 0337 56a3 a3bf
000002f0: 22d7 0a23 8114 a4bf 8b25 848e 2a54 a4bf
00000300: ac5d 7385 b561 a4bf 1d91 d487 d801 00c0
00000310: b05c f7cf 9762 efbf da2d c656 419f ee3f
00000320: 9a38 6fb5 7434 ff3f a4cc fbd4 fada a13f
00000330: 00c1 3ac4 abc9 a03f d795 5546 f21d 9f3f
00000340: 22b3 049d d55b 9c3f 02fe 4f69 ce53 993f
00000350: 4fd9 6fe7 550d 963f 1141 1a46 7f90 923f
00000360: 5478 137c c7cb 8d3f 91ae 1bbe 1a2d 863f
00000370: 0f58 a31b 83af 7c3f 243a 61c7 2f7c 693f
00000380: 1767 8d12 ee95 4abf c8c8 1cf9 615b 73bf
00000390: 5e3e 3c8b 269a 81bf e12b 3a8c 365b 89bf
000003a0: e174 237e e16e 90bf 840a d2fb a307 94bf
000003b0: 1ad7 f3af 046f 97bf 0261 a44a 9f9c 9abf
000003c0: 3384 cdeb 9d88 9dbf c754 3d3a e615 a0bf
000003d0: 368c b024 d53f a1bf dc22 6a2d 3d3f a2bf
000003e0: 0e14 50a5 a811 a3bf e416 74c6 10b5 a3bf
000003f0: 3102 12b3 e227 a4bf d5d7 cb56 0369 a4bf
00000400: e6b9 9220 d277 a4bf 8b25 848e 2a54 a4bf
00000410: bf07 ac8e 5a3e ffbf db2d c656 419f eebf
00000420: 468d 32cf 6b90 ed3f 39c7 d072 2e1f fe3f
00000430: 7efb 6f5a 9fe2 a03f 8d3c 0843 1750 9f3f
00000440: 1c28 6fc9 bc8d 9c3f ed5d 47bd fc84 993f
00000450: 8408 8222 523d 963f 84a7 7d1a d3be 923f
00000460: 36e9 90e8 3924 8e3f bc77 3adf 7d80 863f
00000470: 8eb0 dc9b 8f4a 7d3f d7a0 6dbe d897 6a3f
00000480: 2658 36b9 f79b 46bf 30f6 d894 f2eb 72bf
00000490: fae7 8dea df6a 81bf bfaa 0e8b d534 89bf
000004a0: 37af b01c 5360 90bf 241b 9a9c dbfd 93bf
000004b0: 95d9 4a71 1a6a 97bf 0261 a44a 9f9c 9abf
000004c0: b781 762a 888d 9dbf 774c d969 ca1a a0bf
000004d0: 0cef 6955 1c47 a1bf 2503 b56d d548 a2bf
000004e0: a8a9 7b4d 7a1d a3bf 3791 fcb2 fec2 a3bf
000004f0: 6e5e 778c ca37 a4bf 419e 3ce6 bd7a a4bf
00000500: f6e4 99b0 338b a4bf d5d7 cb56 0369 a4bf
00000510: 21d7 0a23 8114 a4bf 12ea abc0 fc2b febf
00000520: 478d 32cf 6b90 edbf b1bd 80f1 b238 ec3f
00000530: 2506 44e3 a4bf fc3f 789c ff96 4581 9f3f
00000540: 189d d9f5 a3bf 9c3f a204 fab9 21b7 993f
00000550: 817d ec4e 396f 963f 6e07 756e 01f0 923f
00000560: a247 b55e 3284 8e3f a144 0188 25dd 863f
00000570: 5192 d774 74fb 7d3f 8cc5 e842 65e5 6b3f
00000580: 1d94 6bb7 93c3 41bf d5c2 5219 1e5e 72bf
00000590: 0c77 f884 402b 81bf 73c1 ecd8 1dfd 88bf
000005a0: 0484 59cc af48 90bf 935a 041c abea 93bf
000005b0: ea13 d80f 8c5b 97bf a471 6ceb d692 9abf
000005c0: 3384 cdeb 9d88 9dbf 764c d969 ca1a a0bf
000005d0: ce6d be74 9149 a1bf d5fa 509d b94d a2bf
000005e0: 7c0c 357e c124 a3bf 8071 47f3 96cc a3bf
000005f0: 07f4 a234 9c43 a4bf 9418 c5d2 ab88 a4bf
00000600: 3041 ff89 1b9b a4bf 419e 3ce6 bd7a a4bf
00000610: 3202 12b3 e227 a4bf 7a50 0337 56a3 a3bf
00000620: 1304 5813 3ccf fcbf b1bd 80f1 b238 ecbf
00000630: a3a1 0e29 669b ea3f ac57 b4b6 3a19 fb3f
00000640: 4dcc eb30 a0ef 9c3f 8d64 f10d 50e8 993f
00000650: 7bf2 567b 20a1 963f 24ae 276b 2622 933f
00000660: 9831 8ab7 00e8 8e3f 7704 f02f 823f 873f
00000670: 274f 2061 65bb 7e3f 15f9 03e6 0358 6d3f
00000680: 020c 29df d978 38bf 7d30 15d7 57b7 71bf
00000690: ccca db44 badd 80bf c6a7 299b 33b6 88bf
000006a0: 8ccb 8e19 e028 90bf ec65 f342 cfce 93bf
000006b0: b9e8 80bf e843 97bf 13b1 d66a a67f 9abf
000006c0: 88be 5a8a 0f7a 9dbf c654 3d3a e615 a0bf
000006d0: 0bef 6955 1c47 a1bf d5fa 509d b94d a2bf
000006e0: 3f8b 899d 3627 a3bf 3069 e322 7bd1 a3bf
000006f0: dc56 5c65 e34a a4bf ddf8 0f13 4492 a4bf
00000700: cad6 2a32 eda6 a4bf 9418 c5d2 ab88 a4bf
00000710: 6e5e 778c ca37 a4bf e416 74c6 10b5 a3bf
00000720: d2b7 eacb c001 a3bf 6cf6 0c59 742b fbbf
00000730: a5a1 0e29 669b eabf 4117 156b 80bc e83f
00000740: 0b8f 245b 0130 f93f 00cb 54e2 a316 9a3f
00000750: b221 69b6 1cd1 963f 0e0e 1fbf 5453 933f
00000760: 8f1b 5f10 cf4b 8f3f e351 5529 cca3 873f
00000770: 1523 ca12 0283 7f3f 6df8 be85 76e1 6e3f
00000780: 6c7d 3a35 96f3 28bf b496 8785 08fe 70bf
00000790: ea59 5ed8 4785 80bf 9ade 0a7a d062 88bf
000007a0: 6e75 80f9 1c02 90bf 16d9 1124 5aab 93bf
000007b0: 4130 b60c 1924 97bf 6dbc c591 ca63 9abf
000007c0: 5593 033a 6c62 9dbf 7f74 f2f9 4d0c a0bf
000007d0: 368c b024 d53f a1bf 2503 b56d d548 a2bf
000007e0: 7d0c 357e c124 a3bf 3069 e322 7bd1 a3bf
000007f0: 9fd5 b084 584d a4bf 8df0 ab42 2897 a4bf
