examples/xd_1d_models/input/1d_matrices_2d/b1.npy (npy, 8840 bytes, 1 tensors)

array f8 [1089]
000000 00 00 00 00 00 00 00 00 7f fa e0 a8 7f de d2 3f
       0.0 0.29483024112770545
000010 9d 3b 2b 7e 65 c7 d2 3f 5a f5 d7 bd a9 82 d2 3f
       0.2934201938741639 0.28922503985798687
000020 32 03 27 32 4b 10 d2 3f 4e 76 01 d3 63 71 d1 3f
       0.28224449060148793 0.2725457726099635
000030 de 43 23 64 7b a7 d0 3f 58 0e 7c 5e 07 69 cf 3f
       0.26022228983953066 0.24539272416596947
000040 66 df 6e 71 a7 35 cd 3f 66 1d aa f5 43 ba ca 3f
       0.22819989241338162 0.20880937095010238
000050 85 0a 1d 6b fb fc c7 3f 90 a0 06 c7 8e 04 c5 3f
       0.18740790109776043 0.1642015907102672
000060 d8 0a 5a cd 50 d8 c1 3f c9 3f 52 05 28 00 bd 3f
       0.13941392924251406 0.11328363542474941
000070 40 78 30 c6 2e 08 b6 3f 44 89 9d 37 c8 b3 ad 3f
       0.08606235827071007 0.058012253560053156
000080 c2 96 7e bd f0 1b 9e 3f 20 7b 03 8d b7 c2 40 3f
       0.029403459134889294 0.0005114933246906685
000090 e0 00 09 d8 0f 11 9d bf 54 b5 69 0a 46 30 ad bf
       -0.02838539844583543 -0.05700892331229093
0000a0 cd b8 fb ee 06 c8 b5 bf ba b9 2c 99 37 c2 bc bf
       -0.08508342108300156 -0.11233851899735373
0000b0 69 a1 2d a7 c0 ba c1 bf 6a 00 6b 93 af e8 c4 bf
       -0.13851173556328014 -0.16335100839751543
0000c0 b7 e3 56 e1 11 e3 c7 bf 50 83 2e f8 8f a2 ca bf
       -0.1866171217241381 -0.20808601015326156
0000d0 b8 ad 62 70 63 20 cd bf 92 df a0 c7 67 56 cf bf
       -0.227550916553225 -0.24482438323479677
0000e0 92 38 dc c2 94 9f d0 bf a2 d6 82 d6 f9 6a d1 bf
       -0.25974005727119576 -0.2721542925677146
0000f0 04 5f a0 aa 6d 0b d2 bf 71 8b 24 7a 84 81 d2 bf
       -0.2819475332521366 -0.28915512016299433
000100 07 5c 14 33 26 a6 a1 3c 2c b4 29 bc a6 17 b9 bf
       1.2246467991473532e-16 -0.0980171403295606
000110 bf 35 93 32 9a de d2 bf e5 65 38 7e 9d c5 73 3f
       -0.29483656825035703 0.004827132422656065
000120 5f ae 72 04 32 a2 85 3f 60 fc ca a7 1f 96 90 3f
       0.010563269386998529 0.01619767629267377
000130 c4 4e 02 d3 41 32 96 3f 7f 51 d0 d7 aa 97 9b 3f
       0.021676090721100008 0.026945752546525533
000140 7d 11 4b 7a 86 5c a0 3f db cc 61 0f e1 c4 a2 3f
       0.03195591204488133 0.03665831864136645
000150 63 77 fc 98 f5 fe a4 3f 1e d8 64 9a 46 05 a7 3f
       0.04100768558985981 0.044962126109041586
000160 f8 16 7c 35 d6 d2 a8 3f e0 b8 35 79 32 63 aa 3f
       0.048483556774994996 0.05153806428539709
000170 db 9f 18 57 80 b2 ab 3f 40 50 c1 24 85 bd ac 3f
       0.05409623206315902 0.05613342355414419
000180 02 dc f5 91 ae 81 ad 3f 4b bc aa ff 18 fd ad 3f
       0.05763001949065229 0.058571606835692146
000190 32 2d 57 28 94 2e ae 3f 86 73 1d 0e a6 15 ae 3f
       0.058949117588407055 0.05875891611388
0001a0 ee 98 8d 27 8c b2 ad 3f f2 1d 1d c8 3a 06 ad 3f
       0.05800283415628536 0.05668815319819122
0001b0 47 39 c9 c5 5a 12 ac 3f 36 ba b0 61 45 d9 aa 3f
       0.054827534335901755 0.05243889634617853
0001c0 7d d5 bb 7d fe 5d a9 3f 87 76 98 2d 2d a4 a7 3f
       0.04954524311862494 0.04617444211565407
0001d0 ea cf 5e b5 12 b0 a5 3f 7f d7 11 0c 80 86 a3 3f
       0.04235895599359181 0.03813552996955049
0001e0 90 8f d8 fb c9 2c a1 3f 86 e0 6c fa 77 51 9d 3f
       0.03354483794490115 0.028631090793368695
0001f0 1e 13 55 db 13 01 98 3f 00 ae dc 89 81 75 92 3f
       0.02344161058614979 0.018026374854498428
000200 ef 7b ec 57 7d 9a d3 3f 3c b4 29 bc a6 17 b9 3f
       0.3063042982702759 0.09801714032956083
000210 0a a6 69 3c b8 f8 c8 bf 15 aa f6 57 d8 ef e2 bf
       -0.19509032201612825 -0.5917779653585195
000220 4f 1e 5f b9 33 7e 4d bf 36 22 b6 f3 3f 12 74 3f
       -0.0009000542220229476 0.004900216877452615
000230 8c 5e 85 36 65 d1 85 3f 01 dc 6a 0d f0 b1 90 3f
       0.010653296209667283 0.016303778475698753
000240 70 ec 73 72 04 52 96 3f 28 5c ad 63 11 bb 9b 3f
       0.02179724644245734 0.027080795010388098
000250 fe 8a f1 12 e0 6f a0 3f 47 49 0e 46 b1 d9 a2 3f
       0.0321035407185004 0.03681711177991303
000260 90 42 66 1d 09 15 a5 3f dc ef 2e ff 66 1c a7 3f
       0.04117611392860454 0.045138567591010065
000270 8e c2 64 76 ca ea a8 3f 19 70 a8 87 bf 7b aa 3f
       0.048666312172263124 0.05172537356358493
000280 2e b1 c7 ab 69 cb ab 3f fc 4e e0 54 8d d6 ac 3f
       0.05428629133152395 0.05632440243803491
000290 54 ed a4 e6 97 9a ad 3f 85 73 1d 0e a6 15 ae 3f
       0.05782007875901721 0.05875891611387999
0002a0 ca d8 3f 69 88 46 ae 3f 43 8b e7 72 c6 2c ae 3f
       0.059131872985675196 0.05893535759584847
0002b0 1a 64 f7 ab 9f c8 ad 3f 5e 9a c9 fe 0a 1b ad 3f
       0.05817126249503009 0.0568469463367378
0002c0 c7 b2 6f 5e b4 25 ac 3f 8a 3f 9f a7 f8 ea aa 3f
       0.054975163009520815 0.05257393881004109
0002d0 53 a4 74 cd df 6d a9 3f 56 66 68 60 15 b2 a7 3f
       0.04966639883998227 0.04628054429867905
0002e0 f5 7b e3 81 df bb a5 3f 0b 8f c1 5a 14 90 a3 3f
       0.04244898281626056 0.03820861442434705
0002f0 d5 a4 bb 2e 0e 34 a1 3f 7d 23 42 54 3c 5b 9d 3f
       0.03360027618857379 0.028668348925325205
000300 06 31 cf 14 fc 05 98 3f f3 85 bc ae 98 4c e3 3f
       0.023460329790212085 0.6031001484699899
000310 17 a6 69 3c b8 f8 c8 3f 05 9f d5 2e 06 94 d2 bf
       0.1950903220161286 -0.29028467725446233
000320 c1 4c 4d 9d b3 41 ec bf 70 20 2a 9f 13 1c 7b bf
       -0.883020217161537 -0.006618572852524193
000330 a2 1b 34 98 00 8b 4a bf b9 a0 35 8a 81 81 74 3f
       -0.0008100273993541971 0.005006319060477598
000340 e3 99 68 75 ea 10 86 3f a8 e6 47 99 56 d5 90 3f
       0.010774451931024614 0.01643882093956131
000350 71 df c0 a3 b7 78 96 3f fe 54 06 d1 b1 e4 9b 3f
       0.021944875116076405 0.027239588148934672
000360 2b 56 5b 97 f3 85 a0 3f 03 61 d8 aa d1 f0 a2 3f
       0.03227196905724513 0.036993553261881494
000370 28 ee 4e 5e fd 2c a5 3f 17 a7 a1 0d f4 34 a7 3f
       0.04135886932587268 0.045325876869197916
000380 e3 d3 13 cb b3 03 a9 3f d3 6e c7 b7 c7 94 aa 3f
       0.048856371440628064 0.05191635244747563
000390 83 c2 76 00 53 e4 ab 3f 36 06 53 63 1a ef ac 3f
       0.05447635059988889 0.056511711716222754
0003a0 ec 98 8d 27 8c b2 ad 3f 43 8b e7 72 c6 2c ae 3f
       0.05800283415628535 0.05893535759584847
0003b0 f7 a3 a9 ed 9b 5c ae 3f ae 07 94 a9 96 41 ae 3f
       0.05930030132441993 0.05909415073439504
0003c0 9a dd 9d 44 f9 db ad 3f b2 1f b8 44 be 2c ad 3f
       0.05831889116864915 0.05698198880060036
0003d0 9d 81 28 ae 95 35 ac 3f 5a 2f 6f da e0 f8 aa 3f
       0.05509631873087815 0.05268004099306607
0003e0 5e 50 f9 99 ac 79 a9 3f e2 1d 18 af a9 bb a7 3f
       0.049756425662651024 0.04635362875347561
0003f0 3a 91 c6 b4 23 c3 a5 3f 86 30 ac 87 f6 94 a3 3f
       0.0425044210599332 0.03824587255630356
000400 c8 b3 78 4b 82 36 a1 3f 7e 23 42 54 3c 5b 9d 3f
       0.033618995392636075 0.02866834892532521
000410 3e 13 68 0c 5e 9c ec 3f 06 9f d5 2e 06 94 d2 3f
       0.8940878145518594 0.2902846772544624
000420 63 a9 ae a6 e2 7d d8 bf 07 1d f4 62 f2 a6 f2 bf
       -0.3826834323650898 -1.165758501565337
000430 ff e1 8b 49 c5 22 89 bf ec a1 aa 08 d2 ac 7a bf
       -0.012273351008375675 -0.006512470669499209
000440 23 66 00 aa ac 92 46 bf 54 cb a9 b9 1b 0f 75 3f
       -0.0006888716779968645 0.005141361524340155
000450 e6 7f 02 d8 50 5e 86 3f 7f df a0 06 f7 fe 90 3f
       0.01092208060464368 0.01659761407810789
000460 ca 75 94 ac de a4 96 3f 78 84 9a 9a f2 12 9c 3f
       0.022113303454821133 0.027416029630903144
000470 c1 01 44 d8 e7 9d a0 3f 3e 18 4b b9 5e 09 a3 3f
       0.03245472445451326 0.037180862540069345
000480 7c ff fd b2 e6 45 a5 3f d1 a5 c0 3d fc 4d a7 3f
       0.041548928594237616 0.04551685575308862
000490 39 e5 c2 1f 9d 1c a9 3f 0c 26 3a c6 54 ad aa 3f
       0.04904643070899301 0.05210366172566347
0004a0 1a 6e 5f 41 47 fc ab 3f f2 1d 1d c8 3a 06 ad 3f
       0.05465910599715702 0.05668815319819122
0004b0 1a 64 f7 ab 9f c8 ad 3f af 07 94 a9 96 41 ae 3f
       0.05817126249503009 0.05909415073439505
0004c0 78 1d 50 86 f5 6f ae 3f 02 8d 82 ef 49 53 ae 3f
       0.059447929998038995 0.059229193198257604
0004d0 6f ac 56 94 da eb ad 3f 81 0f 88 77 a6 3a ad 3f
       0.058440046890006474 0.057088090983625335
0004e0 a8 2d ad 7a 62 41 ac 3f e4 e6 1e 29 75 02 ab 3f
       0.0551863455535469 0.05275312544786262
0004f0 a1 65 dc cc f0 80 a9 3f 5e bf 02 dc 8b c0 a7 3f
       0.049811863906323646 0.04639088688543212
000500 2e a0 83 d1 97 c5 a5 3f 86 30 ac 87 f6 94 a3 3f
       0.04252314026399549 0.03824587255630356
000510 d4 a4 bb 2e 0e 34 a1 3f 68 32 f0 e2 cc d2 f2 3f
       0.03360027618857378 1.1764649262214792
000520 65 a9 ae a6 e2 7d d8 3f 3b f6 06 38 5d 2b de bf
       0.3826834323650899 -0.47139673682599764
000530 c9 ce 7a b7 0e ff f6 bf 4e 1c 08 2d c4 3c 92 bf
       -1.4372698943306423 -0.017809930084720364
000540 a7 a6 a8 0a 40 e3 88 bf 51 77 36 d9 37 1f 7a bf
       -0.012152195287018342 -0.006377428205636652
000550 f6 05 62 80 46 bc 41 bf b2 ae 0d 6f 9d b5 75 3f
       -0.0005412430043777994 0.005300154662886735
000560 98 ac a9 e9 9e b6 86 3f fa 0e 35 d0 37 2d 91 3f
       0.011090508943388408 0.016774055560076363
000570 f9 cc 65 2e c7 d4 96 3f eb f2 7f b7 0c 44 9c 3f
       0.02229605885208927 0.027603338909090985
000580 15 13 f3 2c d1 b6 a0 3f f8 16 6a e9 66 22 a3 3f
       0.03264478372287819 0.03737184142396005
000590 cf 10 ad 07 d0 5e a5 3f 0a 5d 33 4c 89 66 a7 3f
       0.04173898786260254 0.04570416503127646
0005a0 ce 90 ab 60 91 34 a9 3f ca 3d 04 2b 75 c4 aa 3f
       0.04922918610626113 0.05228010320763195
0005b0 47 39 c9 c5 5a 12 ac 3f 5e 9a c9 fe 0a 1b ad 3f
       0.054827534335901755 0.0568469463367378
0005c0 9b dd 9d 44 f9 db ad 3f 02 8d 82 ef 49 53 ae 3f
       0.058318891168649155 0.059229193198257604
0005d0 4c ec 08 d6 d6 7f ae 3f d1 7c 52 22 32 61 ae 3f
       0.059569085719396314 0.05933529538128258
0005e0 7c 58 db 60 a7 f7 ad 3f 0c c7 37 c6 3a 44 ad 3f
       0.05853007371267524 0.05716117543842189
0005f0 eb 42 90 ad a6 48 ac 3f 60 88 09 56 57 07 ab 3f
       0.05524178379721952 0.05279038357981913
000600 96 74 99 e9 64 83 a9 3f 5e bf 02 dc 8b c0 a7 3f
       0.04983058311038595 0.04639088688543212
000610 3a 91 c6 b4 23 c3 a5 3f 0a 8f c1 5a 14 90 a3 3f
       0.0425044210599332 0.038208614424347045
000620 29 27 dc 61 02 29 f7 3f 3f f6 06 38 5d 2b de 3f
       1.447512037530439 0.47139673682599786
000630 c8 68 ae 39 3b c7 e1 bf 6f 7d 5b fa 78 1e fb bf
       -0.5555702330196022 -1.6949395923218977
000640 d2 f2 13 3d 2f bb 97 bf a7 11 2b a1 5d 19 92 bf
       -0.02317498979845107 -0.017674887620857806
000650 a4 c0 0e a8 d9 95 88 bf f5 93 d2 23 b6 78 79 bf
       -0.012004566613399277 -0.006218635067090074
000660 96 75 de cb ca 6e 38 bf 9c 6c 5e 95 a0 6e 76 3f
       -0.0003728146656330698 0.005476596144855208
000670 f5 5a 4c ed 6f 16 87 3f 6e 7d 1a ed 51 5e 91 3f
       0.011273264340656544 0.016961364838264208
000680 a0 ef c3 d7 99 06 97 3f 61 f0 bd 17 1d 76 9c 3f
       0.0224861181204542 0.027794317792981697
000690 6a 24 a2 81 ba cf a0 3f 33 ce dc f7 f3 3a a3 3f
       0.03283484299124313 0.0375591507021479
0006a0 66 bc 95 48 c4 76 a5 3f c7 74 fd b0 a9 7d a7 3f
       0.04192174325987068 0.04588060651324493
0006b0 fa 5b 15 e5 a4 4a a9 3f 36 ba b0 61 45 d9 aa 3f
       0.04939761444500586 0.05243889634617853
0006c0 c7 b2 6f 5e b4 25 ac 3f b3 1f b8 44 be 2c ad 3f
       0.054975163009520815 0.05698198880060037
0006d0 70 ac 56 94 da eb ad 3f d2 7c 52 22 32 61 ae 3f
       0.05844004689000648 0.059335295381282585
0006e0 59 98 8d a2 a3 8b ae 3f 5c 34 02 71 c6 6a ae 3f
       0.05965911254206508 0.059408379836079134
0006f0 be 6d be 93 eb fe ad 3f 88 68 22 f3 1c 49 ad 3f
       0.058585511956347855 0.057198433570378404
000700 e1 51 4d ca 1a 4b ac 3f 61 88 09 56 57 07 ab 3f
       0.05526050300128183 0.05279038357981914
000710 a2 65 dc cc f0 80 a9 3f e1 1d 18 af a9 bb a7 3f
       0.04981186390632365 0.0463536287534756
000720 f6 7b e3 81 df bb a5 3f 9f f9 58 61 1e 46 fb 3f
       0.04244898281626057 1.704618816627409
000730 c8 68 ae 39 3b c7 e1 3f d6 1d 09 25 f3 4c e4 bf
       0.5555702330196022 -0.6343932841636455
000740 1d 53 fd 20 07 fb fe bf 26 87 90 6b 18 ff 9c bf
       -1.9362860954908634 -0.02831686169168459
000750 d1 ff c6 0b 7c 94 97 bf d0 18 d2 33 bd ef 91 bf
       -0.023027361124832006 -0.01751609448231123
000760 f2 93 67 96 8b 3d 88 bf 0a d6 81 fd b2 bf 78 bf
       -0.011836138274654549 -0.0060421935851216
000770 0e 54 11 af 54 e9 28 bf 6a 26 f4 08 09 33 77 3f
       -0.0001900592683649342 0.005663905423043051
000780 45 a0 08 40 15 7a 87 3f e2 7a 58 4d 62 90 91 3f
       0.011463323609021478 0.017152343722154913
000790 48 12 22 81 6c 38 97 3f d5 5e a3 34 37 a7 9c 3f
       0.022676177388819135 0.02798162707116954
0007a0 02 d0 8a c2 ae e7 a0 3f f0 e5 a6 5c 14 52 a3 3f
       0.033017598388511274 0.03773559218411637
0007b0 92 87 ff cc d7 8c a5 3f 34 f1 a9 e7 79 92 a7 3f
       0.0420901715986154 0.04603939965179152
0007c0 7c d5 bb 7d fe 5d a9 3f 89 3f 9f a7 f8 ea aa 3f
       0.04954524311862493 0.05257393881004108
0007d0 9d 81 28 ae 95 35 ac 3f 81 0f 88 77 a6 3a ad 3f
       0.05509631873087815 0.057088090983625335
0007e0 7c 58 db 60 a7 f7 ad 3f 5b 34 02 71 c6 6a ae 3f
       0.05853007371267524 0.05940837983607913
0007f0 9c ad 70 d5 e7 92 ae 3f da d5 ec 9d a8 6f ae 3f
       0.0597145507857377 0.05944563796803566
